examples/sound/jam/modelbig1.onnx (onnx, 374667 bytes, 16 tensors)

1 f4 [256, 121]
0	0xbab9d600	-0.0014178157
1	0x3d9903ec	0.07471451
2	0xbdbe611c	-0.09295866
3	0xbd9a0560	-0.075205564
4	0xbd10e93d	-0.035378683
5	0x3d841d32	0.06450881
6	0xbd0f8b65	-0.035045046
7	0x3d35b210	0.044359267
8	0xbdaa439c	-0.08313677
9	0xbde5862c	-0.11207232
10	0x3d865888	0.06559855
11	0xbd62f426	-0.05540862
12	0xbcbf9648	-0.02338709
13	0xbd84295b	-0.064532004
14	0xbd99181c	-0.074753016
15	0xbdbbffba	-0.09179635
16	0x3b846720	0.004040614
17	0xbdf1905c	-0.117951125
18	0x3c98baa8	0.018643692
19	0xbd6fc63c	-0.05853866
20	0xbd0948f8	-0.033516854
21	0x3c40b760	0.01176247
22	0xbdafe8a8	-0.085892975
23	0x3cbd9870	0.023143977
24	0xbd0625c0	-0.032750845
25	0x3dd7c504	0.105356246
26	0xbd9ae130	-0.07562482
27	0xbd13b84c	-0.03606443
28	0xbd83795c	-0.06419632
29	0x3d807ba8	0.062735856
30	0x3d852b76	0.0650243
31	0xbde62462	-0.11237408
32	0xbdc19bb2	-0.09453525
33	0xbb9faa20	-0.0048725754
34	0x3db50c1c	0.088402
35	0xbd24a8c8	-0.040200025
36	0x3de5eafc	0.1122646
37	0xbdf09fdc	-0.11749241
38	0xbd1387d6	-0.036018215
39	0x3d05935c	0.032611236
40	0xbd3d59b1	-0.046228115
41	0xbda88998	-0.08229369
42	0xbd6f213c	-0.058381304
43	0xbc70a9ac	-0.01468889
44	0x3e18923e	0.14899537
45	0x3de79a3c	0.11308715
46	0xbd270cb0	-0.040783584
47	0xbd5bf760	-0.053702712
48	0x3db62206	0.08893208
49	0xbde9c504	-0.11414531
50	0xbd3a4d3c	-0.045483813
51	0x3dc77760	0.09739566
52	0xbdf68fd2	-0.1203915
53	0x3db5bd72	0.088740245
54	0xbdb0082a	-0.08595307
55	0x3ddd8be6	0.10817699
56	0x3da4e4e4	0.0805147
57	0xbdef6012	-0.11688246
58	0x3d96d134	0.07364121
59	0x3d8c901a	0.06863423
60	0xbc9bfe25	-0.019042084
61	0xbc9c14b8	-0.019052848
62	0x3d1aec6c	0.037823126
63	0x3d1b2940	0.037881136
64	0xbd43c188	-0.047791988
65	0x3d3ba94c	0.04581575
66	0xbca2d970	-0.019879073
67	0xbdc341da	-0.095340446
68	0x3a5d8b00	0.00084511936
69	0xbd8a09a6	-0.067401215
70	0xbdbbde98	-0.09173316
71	0x3c32a0b0	0.010902569
72	0x3def10f9	0.11673159
73	0xbdd72730	-0.10505521
74	0xbc6cfc70	-0.014464483
75	0xbd5dae2c	-0.05412118
76	0xbd9f17b4	-0.07768193
77	0x3d301200	0.042985916
78	0x3dd7f2c4	0.10544351
79	0xbcc1c6b0	-0.023654312
80	0x3d89cf68	0.06729013
81	0xbde249f0	-0.11049259
82	0x3cb77f00	0.022399426
83	0x3df79808	0.120895445
84	0x3de72328	0.112860024
85	0x3d58aa04	0.052896515
86	0x3c083180	0.008312583
87	0x3d88d074	0.06680384
88	0xbd446b9c	-0.047954187
89	0xbcf07680	-0.02935338
90	0xbda7f3d2	-0.08200802
91	0xbc4dd130	-0.012562081
92	0x3ced73b0	0.028985828
93	0x3dc445e4	0.09583643
94	0xb9a0d000	-0.0003067255
95	0x3dde0388	0.10840517
96	0x3dc8bb4c	0.09801349
97	0x3de7813a	0.11303945
98	0x3db0681c	0.08613607
99	0xbd99f9ef	-0.07518374
100	0x3e15c4f7	0.14625917
101	0x3e0221b8	0.12708175
102	0x3d4d214c	0.050080582
103	0xbd1b93e8	-0.03798285
104	0x3dee43a5	0.11633996
105	0x3e0664d6	0.13124403
106	0x3b3cfbc0	0.0028836578
107	0x3db27b62	0.0871494
108	0xbcf2dd39	-0.029646503
109	0x3d8997ed	0.06718431
110	0x3e0bee27	0.13665067
111	0xbd3f676e	-0.046729498
112	0x3d8bf86b	0.06834491
113	0x3dc67dc8	0.096919596
114	0xbd31f13c	-0.04344295
115	0xbc76c88e	-0.015062464
116	0x3d0d673c	0.03452228
117	0xbdb0e8e4	-0.0863817
118	0x3de8aa1e	0.11360572
119	0x3da93c2d	0.08263431
120	0xbb6b9266	-0.0035945415
121	0x3dc2a2f4	0.09503737
122	0xbe09073d	-0.13381667
123	0xbce8f4b0	-0.028436989
124	0x3dab1434	0.08353463
125	0xbce56e1d	-0.028006608
126	0xbcb2ac50	-0.02181068
127	0xbdf5123f	-0.11966371
128	0x3d8abc68	0.06774217
129	0xbd95fdf4	-0.07323828
130	0xbdff41f8	-0.124637544
131	0xbdf9b378	-0.12192434
132	0xbdc16733	-0.09443512
133	0x3ddd0122	0.10791232
134	0xbe19f5a5	-0.15035112
135	0xbd864de4	-0.06557825
136	0xbdae7558	-0.08518475
137	0x3d9d8a1e	0.076923594
138	0xbddd73c6	-0.10813098
139	0xbc7b8680	-0.0153518915
140	0x3c67b050	0.014141157
141	0x3df50fe8	0.119659245
142	0xbd5bc5b0	-0.053655326
143	0xb9f71400	-0.00047126412
144	0xbde57c9e	-0.112054095
145	0xbd636308	-0.055514365
146	0x3d7dff98	0.06201133
147	0x3d2cb6bc	0.042166457
148	0x3db93844	0.09043935
149	0x3d8413fa	0.06449123
150	0xbb528280	-0.003212124
151	0xbdd8ff6a	-0.10595591
152	0xbd2eb76c	-0.042655393
153	0x3cbcf078	0.023063883
154	0x3def5c94	0.1168758
155	0x3d8dcfba	0.06924386
156	0xbc85f140	-0.016350389
157	0x3d5a8634	0.053350642
158	0x3d115d1c	0.035489187
159	0xbd9bf552	-0.076151505
160	0x3df3e986	0.119097754
161	0x3d35b87a	0.044365384
162	0xbd9df17b	-0.07712074
163	0xbdf5d6fa	-0.12003894
164	0xbe12e51f	-0.14345215
165	0x3c7fefeb	0.015621166
166	0xbe174aaa	-0.14774576
167	0x3d953536	0.0728554
168	0x3d91c504	0.07117656
169	0x3d7bb986	0.061456226
170	0xbd238ac4	-0.03992726
171	0xbd9cc78a	-0.076552466
172	0xbd65d8f8	-0.05611512
173	0x3d0330fc	0.032029137
174	0x3da1ab9e	0.078940615
175	0x3d4e6afc	0.050394997
176	0xbdba5ec4	-0.09100106
177	0x3d683e14	0.056699827
178	0x3d8fe26a	0.07025607
179	0xbcfdb400	-0.03096962
180	0xbdd637a6	-0.10459833
181	0x3dac4c25	0.08412961
182	0xbdd1daac	-0.102467865
183	0x3d80efe8	0.062957585
184	0x3c4bfa00	0.012449741
185	0xbd92df48	-0.07171494
186	0x3d8c1c3a	0.06841321
187	0x3d2263ac	0.039645836
188	0xbd99ebb8	-0.07515663
189	0xbd0563b0	-0.032565773
190	0x3ca45a58	0.02006261
191	0xbb9bed80	-0.004758537
192	0xbdbf87ee	-0.093520984
193	0x3dea3f87	0.11437898
194	0x3dd10744	0.10206464
195	0x3dfc3da0	0.123164415
196	0xbbefd1c0	-0.0073187053
197	0x3d693d3c	0.056943163
198	0xbd0afc54	-0.033932045
199	0xbd82398e	-0.06358634
200	0x3bc274a0	0.005934313
201	0xbd9d0dc6	-0.07668643
202	0xbde9faf6	-0.1142482
203	0x3db2450c	0.08704576
204	0x3ddf05ca	0.10889776
205	0xbe0d770c	-0.13814944
206	0x3df1110e	0.11770831
207	0x3d904d72	0.070460215
208	0x3dbc0786	0.091811225
209	0xbd66df74	-0.056365445
210	0xbdf988d4	-0.12184301
211	0xbdb7471e	-0.089491114
212	0xbcea9a58	-0.02863805
213	0xbc8d7d30	-0.017271608
214	0x3d9c28ca	0.076249674
215	0x3df26f26	0.11837606
216	0x3dbb97ae	0.0915979
217	0xbcca3bd8	-0.024686739
218	0xbde42c08	-0.11141211
219	0xbdee0de7	-0.116237454
220	0x3d9d4574	0.07679263
221	0xbcc69ac7	-0.024243725
222	0xbcb000f8	-0.021484837
223	0x3db0d1d7	0.08633774
224	0x3d046d6c	0.032330915
225	0xbdbffc8f	-0.093743436
226	0xbda78c2e	-0.08181034
227	0x3d8289a8	0.06373912
228	0x3d9cd7d5	0.07658354
229	0xbda7ed0e	-0.081995115
230	0x3ddef42b	0.10886415
231	0xbd520439	-0.05127356
232	0x3d2c8b50	0.042125046
233	0x3d241b40	0.04006505
234	0xbdc29bca	-0.09502371
235	0xbd562821	-0.052284364
236	0x3dd7466d	0.105114795
237	0xbdc5c4d4	-0.096566826
238	0x3e29414f	0.1652882
239	0xbd4d38ac	-0.050102875
240	0x3d87b99f	0.06627201
241	0x3d156b37	0.0364792
242	0x3d2ff484	0.042957798
243	0xbc26d36f	-0.010182246
244	0xbda112a0	-0.078648806
245	0x3c95b993	0.018276965
246	0x3dcaaaa4	0.09895828
247	0xbc67b930	-0.014143273
248	0x3d8a5d6a	0.067560986
249	0x3e0c2e4a	0.13689533
250	0x3d203e5d	0.039121974
251	0xbad7a400	-0.0016452074
252	0x3d276c3c	0.040874705
253	0x3d6e8175	0.05822893
254	0xbc8bb5d0	-0.017054468
255	0xbdac6cd6	-0.08419196

2 f4 [256, 64]
0	0x3c162cbb	0.009165938
1	0x3dba6214	0.09100738
2	0xbdceac14	-0.10091415
3	0xbd1308f6	-0.035897218
4	0xbe1f69ec	-0.1556775
5	0xbceddb10	-0.029035121
6	0x3d971093	0.07376208
7	0xbcdf58fd	-0.027264113
8	0xbdad3055	-0.08456484
9	0x3db6e304	0.089300185
10	0xbc27e8e7	-0.010248399
11	0xbdf43b3c	-0.119253606
12	0x3d8fbb28	0.07018119
13	0xbcce103b	-0.025154224
14	0xbdb678c3	-0.08909752
15	0x3cbcab70	0.023030967
16	0x3d8ddb19	0.06926555
17	0x3c28fd9a	0.01031437
18	0x3daf20d2	0.08551182
19	0xbd0d2b63	-0.034465205
20	0xbd909a03	-0.070606254
21	0x3d2c40af	0.042053875
22	0x3988e9f0	0.00026114238
23	0x3d677ea9	0.056517277
24	0x3d1d3042	0.0383761
25	0xbbe75d66	-0.0070606945
26	0x3d404c1d	0.046947587
27	0x3d35e7c3	0.04441048
28	0x3d92f3ca	0.07175405
29	0xbcab6a41	-0.02092469
30	0xbdce432c	-0.10071406
31	0x3d2fe9e4	0.042947665
32	0xbd973b31	-0.07384337
33	0xbd8a5e98	-0.067563236
34	0xbdc676cf	-0.0969063
35	0xbd32d35e	-0.043658607
36	0x3b8cb10d	0.004293567
37	0x3a6334a7	0.00086672086
38	0x3d0904b7	0.033451762
39	0x3c0ff7d4	0.008787114
40	0xbd5ab545	-0.05339553
41	0xbd8d2e48	-0.06893593
42	0x3cf76e22	0.030203883
43	0xbcfeefd9	-0.031120228
44	0x3c823840	0.015895963
45	0xbcf81411	-0.030283006
46	0xbc5ee4e5	-0.013604377
47	0x3d0127d5	0.031532127
48	0x3dd1adb6	0.10238211
49	0x3e008cac	0.12553662
50	0x3e1f1b0d	0.15537663
51	0x3d01b59e	0.031667344
52	0x3df3c319	0.11902446
53	0x3cb05ef7	0.021529658
54	0x3dfb6325	0.1227477
55	0x3dbe3fd5	0.09289519
56	0xbdbdf06d	-0.09274373
57	0xbdbd5fc6	-0.09246783
58	0xbb836b6b	-0.004010608
59	0xbcaa59e3	-0.020794814
60	0xbd968d86	-0.07351212
61	0xbd812eb5	-0.06307737
62	0x3e1804eb	0.14845626
63	0x3da661c7	0.08124118
64	0xbcb26f14	-0.021781482
65	0xbdc1f7a4	-0.09471062
66	0x3da1fb62	0.079092756
67	0x3d49c992	0.049264498
68	0xbbe8b884	-0.007102074
69	0x3dc767c1	0.09736586
70	0xbd066c61	-0.032818202
71	0xbdb1b0d6	-0.08676307
72	0xbcbd6dd3	-0.023123657
73	0xbdfdce2f	-0.12392842
74	0xbcf42bc0	-0.029806018
75	0x3cb02371	0.021501275
76	0xbd969bf9	-0.07353968
77	0x3d2ba193	0.041902136
78	0xbd217bf8	-0.039424866
79	0x3cd8e7f2	0.026477788
80	0xbd167ff7	-0.03674313
81	0xbaf8ce24	-0.0018982333
82	0xbcb5ba8b	-0.022183677
83	0x3d0b6221	0.03402913
84	0x3db7b16f	0.0896939
85	0x3c4b621b	0.012413527
86	0xbd40ad83	-0.047040474
87	0x3ce9f395	0.028558532
88	0x3cadb339	0.021203624
89	0x3a75817e	0.0009365304
90	0xbd825c2b	-0.06365236
91	0xbbcbbbf0	-0.0062174723
92	0x3ce2087d	0.027591938
93	0x3de4717f	0.1115446
94	0xbd118a97	-0.03553256
95	0xbb263550	-0.0025361367
96	0x3dc43ef9	0.095823236
97	0xbd3d5610	-0.046224654
98	0xbd7aefec	-0.061263964
99	0xbd08b803	-0.033378612
100	0xbdd0ab9d	-0.10188983
101	0xbc25da87	-0.010122902
102	0xbcc7aa84	-0.0243733
103	0xbd989111	-0.07449544
104	0x3d5e445d	0.054264415
105	0xbd935eeb	-0.071958385
106	0x3d15fac6	0.03661611
107	0xbda684b7	-0.08130782
108	0xbd8a948a	-0.06766613
109	0xbdaca3c1	-0.08429671
110	0xbd979815	-0.07402054
111	0xbccc5e13	-0.024947202
112	0x3e044d63	0.12920146
113	0x3d0b6fcb	0.03404216
114	0x3d944845	0.07240347
115	0xbdc78a88	-0.097432196
116	0xbd58b253	-0.05290444
117	0x3dbcc3fb	0.09217068
118	0x3df8ac81	0.121422775
119	0xbdc6517d	-0.096835114
120	0xbd5eb5e8	-0.054372698
121	0xbdfc9139	-0.123323865
122	0xbdc2ed1b	-0.095178805
123	0xbcbb2125	-0.022842953
124	0x3d3d21ce	0.046174817
125	0x3d2add32	0.041714855
126	0xbe8157cd	-0.252623
127	0x3dd4807e	0.103760704
128	0xbd16b462	-0.03679312
129	0x3acfebf9	0.0015863172
130	0xbe047aa1	-0.12937404
131	0x3ce1b667	0.027552797
132	0xbe121773	-0.14266758
133	0x3d9ef3ae	0.07761322
134	0x3d89ddb3	0.06731739
135	0x3d96a944	0.073565036
136	0xbdbe9302	-0.09305383
137	0x3d08e59a	0.03342209
138	0x3a64ecae	0.0008732778
139	0xbbbc0907	-0.005738381
140	0x3cbc01db	0.022950104
141	0xbe227dc4	-0.15868288
142	0x3d391a3a	0.045191027
143	0x3d065554	0.03279622
144	0xbda33bd3	-0.07970395
145	0x3ca3b4a9	0.019983606
146	0xbcea46da	-0.028598238
147	0x3a44ed8e	0.0007512205
148	0xbd6e634b	-0.058200162
149	0x3de6129e	0.1123402
150	0x3ce54f25	0.02799184
151	0x3c80c6e2	0.015719835
152	0xbd70b338	-0.058764666
153	0x3e1fcfc0	0.15606594
154	0x3e1e7c01	0.15476991
155	0xbd340969	-0.043954287
156	0x3d76fbd7	0.060298767
157	0xbd8b78b5	-0.068101324
158	0xbd96b14b	-0.07358035
159	0xbd9c8d31	-0.076441176
160	0xbe02344f	-0.12715267
161	0xbbc64842	-0.0060510943
162	0xbdbadd73	-0.09124269
163	0xbd9bb5cf	-0.076030366
164	0x3d22b2a5	0.03972115
165	0x3c28dfb5	0.010307242
166	0xbdf50edc	-0.11965725
167	0xbbeec002	-0.0072860727
168	0x3d717a61	0.0589546
169	0xbd5b37ca	-0.05352
170	0xbda4b0ce	-0.08041535
171	0x3ddb1fc8	0.10699421
172	0xbcb28a4e	-0.021794464
173	0xbaa8fcdf	-0.0012892744
174	0x3d950cf4	0.07277861
175	0x3dfa99ae	0.12236343
176	0x3dd7434b	0.10510882
177	0x3da4546e	0.08023916
178	0x3dffd5a9	0.12491924
179	0xbd81694f	-0.06318914
180	0xbc9c8ec8	-0.019111052
181	0xbd9200a9	-0.07129032
182	0xbcdd40ff	-0.027008532
183	0xbc42e31c	-0.011894967
184	0xbd8671ad	-0.06564651
185	0xbd9c1010	-0.07620251
186	0x3b84d711	0.004053958
187	0xbe2215a1	-0.15828563
188	0x3dbfe775	0.09370319
189	0xbd70c1fe	-0.058778755
190	0x3e0c6eff	0.13714217
191	0x3d9ebbe3	0.0775068
192	0xbd89b53c	-0.06724021
193	0xbd5af00e	-0.05345159
194	0x3c5684e5	0.013093208
195	0xbc85c9db	-0.016331604
196	0xbe00d3c1	-0.12580778
197	0xbd474b6b	-0.04865591
198	0x3d83ba00	0.06431961
199	0xbd766c6b	-0.06016199
200	0xbe07dd1d	-0.13267942
201	0xbd02d56b	-0.031941812
202	0xbe11f693	-0.14254217
203	0xbbb3d5fd	-0.005488156
204	0x3ce3c6e6	0.027804803
205	0x3dbe0c13	0.09279647
206	0xbd228dae	-0.039685898
207	0xbd647ec2	-0.05578495
208	0xbe111343	-0.14167504
209	0x3dca52c6	0.09879069
210	0xbd93a5fe	-0.07209395
211	0x3db06d37	0.08614581
212	0xbdd76d3d	-0.105188824
213	0x3d6eb6df	0.05827987
214	0xbd379361	-0.044818286
215	0xbe0ddb92	-0.1385329
216	0xbd9770c2	-0.07394554
217	0xbd90ac91	-0.070641644
218	0x3d40c23d	0.04706024
219	0xbd80ed5d	-0.062952735
220	0x3d5d3760	0.054007888
221	0x3d897953	0.06712594
222	0x3d9fda35	0.078052916
223	0x3daecdf8	0.08535379
224	0xbb616962	-0.0034395088
225	0x3db80b33	0.08986511
226	0x3c415885	0.01180089
227	0x3da8c04f	0.08239805
228	0xba23adf8	-0.000624388
229	0x3cf807b1	0.030277105
230	0xbe0add7d	-0.13561054
231	0xbdd77c05	-0.10521702
232	0xbd995793	-0.074874066
233	0xbd462bbb	-0.04838155
234	0x3dee1327	0.11624747
235	0xbccc2490	-0.024919778
236	0x3da98813	0.08277907
237	0xbc39c56f	-0.011338576
238	0xbd7b85ff	-0.061407086
239	0x3df3cb7e	0.119040474
240	0x3e150d8f	0.14555953
241	0x3d3c0e87	0.04591229
242	0xbd1bc5a1	-0.03803027
243	0xbba07032	-0.004896187
244	0x3dc0fdf8	0.09423441
245	0x3db55d7f	0.088557236
246	0xbd26094e	-0.040536217
247	0x3e1e67a1	0.15469219
248	0xbe185e00	-0.14879608
249	0xbddb8465	-0.10718612
250	0x3c9ee75a	0.019397426
251	0x3bd2e1df	0.0064356173
252	0x3dcbb705	0.099470176
253	0xbd13f5dc	-0.03612314
254	0xbcbfa0d6	-0.023392122
255	0x3c800d8b	0.015631458

3 f4 [256]
0	0x3d5c498f	0.05378109
1	0x3d9c196e	0.07622038
2	0x3c9e6629	0.019335823
3	0x3a64dedd	0.0008730719
4	0x3dce2550	0.100657105
5	0xbd91577a	-0.07096763
6	0x3c09b7cf	0.00840564
7	0xba65dadb	-0.0008768269
8	0xbd2e4a79	-0.04255149
9	0x3deb1050	0.11477721
10	0x3d8f5a89	0.0699969
11	0x3da5db9c	0.08098528
12	0x3d825e19	0.06365604
13	0x3dbf6598	0.09345549
14	0x3e16035e	0.14649722
15	0xbd2eda21	-0.042688493
16	0x3daebfbf	0.085326664
17	0xbd28f307	-0.041247394
18	0x3e11c420	0.14234972
19	0x3da7583a	0.08171125
20	0xbd1115a4	-0.03542103
21	0x3e044363	0.12916331
22	0x3de0b29f	0.10971569
23	0xbd615460	-0.055012107
24	0x3df04878	0.11732572
25	0x3d853aab	0.06505331
26	0x3ce724cc	0.028215788
27	0x3c732acc	0.014841747
28	0xbdb441bb	-0.088015996
29	0x3ca8232f	0.02052459
30	0x3d9524c0	0.072824
31	0x3c56293a	0.013071353
32	0x3d4321f1	0.04763979
33	0x3e1a64bf	0.15077494
34	0x3dc6f342	0.097143665
35	0x3e0386c2	0.12844375
36	0xbd5cb363	-0.053882014
37	0x3dbc1901	0.091844566
38	0x3da29bc1	0.07939864
39	0x3de9fa7e	0.11424731
40	0xbd829ef1	-0.06377972
41	0xbda8ffbb	-0.08251902
42	0x3e04bde9	0.1296307
43	0x3df52a75	0.11970989
44	0x3d035103	0.03205968
45	0x3deec126	0.11657934
46	0xbd411864	-0.0471424
47	0x3dcb3c7f	0.09923648
48	0xbd8b9739	-0.06815953
49	0x3da3484b	0.07972773
50	0x3d80e01a	0.06292744
51	0xbc63d0db	-0.0139047755
52	0xbd378e35	-0.044813354
53	0xbd87353a	-0.06601949
54	0xbd0d2970	-0.034463346
55	0x3d19115a	0.037370063
56	0x3c24f23c	0.010067519
57	0x3d22e1e1	0.039766196
58	0x3b7865d8	0.00379025
59	0x3d60e67a	0.0549073
60	0x3dfc0330	0.123052955
61	0x3d683509	0.056691203
62	0x3c9aaea1	0.018882098
63	0xbda530e8	-0.08065969
64	0x3d5548b4	0.05207129
65	0x3d8da643	0.069164775
66	0xbcb8f948	-0.022579804
67	0x3c5885df	0.013215511
68	0xbdda9065	-0.10672072
69	0x3bbb4921	0.0057155048
70	0x3d73e579	0.059545014
71	0xbc58d1e0	-0.013233632
72	0x3d2e2205	0.042512912
73	0x3de8d46a	0.1136864
74	0xbd3c0a21	-0.045908097
75	0x3c1f3ecd	0.009719563
76	0xbdaf9a4a	-0.0857435
77	0xbd842d3d	-0.06453941
78	0x3d3a55df	0.04549205
79	0xbd4e02a5	-0.05029549
80	0x3cdc8a05	0.026921282
81	0x3de11dfc	0.10992047
82	0x3d31e7d2	0.04343397
83	0xbda95077	-0.082673006
84	0xbb983789	-0.004645292
85	0x3d15dc93	0.03658731
86	0x3d97d417	0.074135
87	0xbd9305d0	-0.07178843
88	0x3c414b7f	0.011797785
89	0x3db0789e	0.08616756
90	0x3e06e26f	0.13172315
91	0x3db991eb	0.09061035
92	0xbd734930	-0.05939597
93	0xbc56e3d4	-0.013115842
94	0x3d49457e	0.04913854
95	0x3d804385	0.06262878
96	0x3de4ff3a	0.11181493
97	0x3e0ca2db	0.13734
98	0x3e03d9c3	0.12876038
99	0xbd36e87d	-0.04465531
100	0xbc1336f3	-0.008985269
101	0x3d709447	0.05873516
102	0xbd0c438e	-0.034244113
103	0x3da6818d	0.081301786
104	0x3e150e95	0.14556344
105	0x3d95085e	0.072769865
106	0x3d359b6d	0.04433768
107	0x3cb8a1b9	0.022538053
108	0xbdacf640	-0.08445406
109	0xbce6d4c8	-0.028177634
110	0x3d600cd4	0.054699734
111	0xbd50035c	-0.050784454
112	0x3df928d4	0.121659905
113	0xbdbba84e	-0.09162961
114	0x3d8aafce	0.06771813
115	0x3c1be7df	0.009515732
116	0x3e249c59	0.16075267
117	0x3dd851a7	0.10562449
118	0x3da7f519	0.082010455
119	0xbd8fbbd2	-0.07018246
120	0xbda13818	-0.07872027
121	0x3db390f7	0.08767884
122	0x3d888afd	0.06667135
123	0x3cdef6b2	0.027217243
124	0x3dbc415d	0.091921546
125	0xbb5422da	-0.0032369406
126	0x3ccb45c6	0.024813544
127	0x3c35b9c2	0.011091651
128	0x3cfe3dec	0.031035386
129	0xbde0936b	-0.10965618
130	0xbdd3e5e1	-0.1034658
131	0xbb0e200d	-0.0021686584
132	0xbdf0e394	-0.11762157
133	0x3d4bfe5f	0.049803134
134	0x3d206d95	0.039167006
135	0xbd257b91	-0.040401045
136	0x3d4e5a9e	0.050379388
137	0xbe1450e1	-0.14483978
138	0xbb861f88	-0.0040931143
139	0xbd817a5d	-0.06322167
140	0x3d6c310e	0.05766397
141	0xbdf92eca	-0.121671274
142	0x3de57979	0.1120481
143	0x3d5eab29	0.05436245
144	0xbd2f6c15	-0.042827684
145	0x3dca7c50	0.09886992
146	0x3d19ffed	0.037597585
147	0x3d75a6f9	0.05997369
148	0xbe11b1d4	-0.14227992
149	0x3d37c439	0.044864867
150	0xbdde994f	-0.10869085
151	0xbd29826d	-0.04138415
152	0x3d6b73fd	0.057483662
153	0xbc6d7e3d	-0.01449543
154	0x3e0d5a97	0.13804089
155	0x3bd78133	0.006576681
156	0x3d28e899	0.041237447
157	0x3dfb5281	0.12271596
158	0xbe21cbec	-0.15800446
159	0xbca25abb	-0.019818654
160	0x3c0208ac	0.007936638
161	0x3dec2314	0.11530128
162	0xbde72960	-0.112871885
163	0xbe005d02	-0.1253548
164	0xbbdb907e	-0.0067005744
165	0x3c0fbe27	0.008773363
166	0xbdf8e2dc	-0.12152645
167	0xbbd65597	-0.006540965
168	0x3df7e3ef	0.12104022
169	0x3d92b5bf	0.071635716
170	0x3c5aecf1	0.013362155
171	0x3d820285	0.06348137
172	0xbe09db2e	-0.13462517
173	0xbd18b561	-0.03728235
174	0xbc84ebed	-0.01622578
175	0x3e08a017	0.1334232
176	0x3d6ff425	0.058582444
177	0x3dcdd459	0.10050268
178	0xbc7e4bda	-0.015521014
179	0x3e0b1e5b	0.13585798
180	0x3dd4bb72	0.10387315
181	0xbda99820	-0.08280969
182	0x3c54d9d2	0.012991386
183	0xbd78fce3	-0.060788047
184	0xbdde2113	-0.10846152
185	0xbc4ca4fd	-0.012490508
186	0xbce16581	-0.027514221
187	0x3d3eac92	0.046551295
188	0x3e1f74fa	0.15571967
189	0xbd760f66	-0.06007328
190	0x3df9053e	0.12159203
191	0x3c6e020a	0.014526853
192	0xbcd89230	-0.026436895
193	0xbdd2ad0c	-0.10286912
194	0xbdb05902	-0.08610727
195	0x3deabafe	0.11461447
196	0xbd00d3aa	-0.03145186
197	0xbc117c45	-0.008879726
198	0x3e14fc43	0.14549355
199	0x3d760cef	0.06007093
200	0xbdab00d6	-0.08349769
201	0x3d407a7f	0.04699182
202	0xbc84714d	-0.016167307
203	0xbd961259	-0.07327718
204	0xbbcea2fa	-0.0063060494
205	0xb9fbf3f4	-0.0004805621
206	0x3dbf084d	0.09327755
207	0xbb6dda34	-0.003629339
208	0xbd107987	-0.035272148
209	0xbd8d664a	-0.06904276
210	0x3d0444d1	0.03229219
211	0x3cda9334	0.02668152
212	0xbd8d5945	-0.069017924
213	0x3c8c3d63	0.017119115
214	0xbd55a88e	-0.0521627
215	0x3ce8d903	0.028423792
216	0x3dbe9c0d	0.09307108
217	0x3cc62cec	0.024191342
218	0xbc17bdcb	-0.009261559
219	0x3d6bd9b6	0.057580672
220	0xbde66411	-0.11249555
221	0xbd7eb329	-0.06218258
222	0x3db6f292	0.08932985
223	0xbd36d889	-0.044640098
224	0xbd170022	-0.03686536
225	0x3e0ad208	0.13556683
226	0xbdb0b968	-0.086291134
227	0xbddd7725	-0.10813741
228	0xbc3dae5e	-0.011577217
229	0xbd7847a4	-0.060615197
230	0x3c1931c5	0.009350245
231	0x3be9e9ef	0.0071384828
232	0x3d3a9402	0.045551307
233	0x3e08df3f	0.13366412
234	0x3d37ebd1	0.044902626
235	0x3d2425bd	0.040075053
236	0x3c8b17f4	0.016979195
237	0x3ca66618	0.020312354
238	0x3d90ad24	0.07064274
239	0xbcbcd361	-0.023050012
240	0x3dd6ed1f	0.10494446
241	0x3d1e8442	0.03870035
242	0x3d2a939d	0.04164468
243	0xbc55ad17	-0.013041756
244	0x3dce6415	0.10077683
245	0xbd9b9cb6	-0.075982496
246	0xbc93f617	-0.01806168
247	0xbbb2e0eb	-0.005458941
248	0x3dcc451d	0.0997412
249	0x3d285297	0.04109439
250	0x3d7a682c	0.061134502
251	0x3cc47015	0.023979226
252	0xbd957ca0	-0.07299161
253	0x3dfb05ff	0.12257003
254	0x3e495c32	0.19664076
255	0xbda0285c	-0.07820198

4 f4 [256]
0	0x3d642c46	0.055706285
1	0xbda15c54	-0.07878938
2	0x3e1782fc	0.1479606
3	0x3dfcfc14	0.123527676
4	0x3dd6fd8e	0.104975805
5	0xbdb3492c	-0.08754191
6	0x3b867ca2	0.004104213
7	0x3dc744dc	0.09729931
8	0x3d415440	0.047199488
9	0xbdae300a	-0.085052565
10	0xbd5dc80a	-0.05414585
11	0x3d79db6d	0.061000276
12	0x3e019ab4	0.12656671
13	0x3e197b71	0.14988495
14	0xbd037dd1	-0.03210241
15	0x3e1a557a	0.15071669
16	0xbd99c9a9	-0.07509167
17	0x3dd4538c	0.10367498
18	0x3df50ec7	0.11965709
19	0x3b7a0faa	0.003815631
20	0x3ddb4c08	0.10707861
21	0x3d666e70	0.056257665
22	0x3d91f760	0.07127261
23	0x3dad26b9	0.084546514
24	0xba9954b0	-0.0011698212
25	0x3d9f0cd2	0.07766117
26	0x3be5fda4	0.0070187617
27	0x3e21d7ee	0.15805027
28	0x3d4e7fd4	0.050414875
29	0x3d959c89	0.07305247
30	0x3cc40bae	0.02393135
31	0x3e003ab9	0.12522401
32	0x3ce116e3	0.027476734
33	0xbd07e548	-0.033177644
34	0x3d33ed61	0.043927554
35	0xbdb80dd7	-0.08987015
36	0xbd0ccb15	-0.03437336
37	0x3e024761	0.12722541
38	0xbc5f0c81	-0.013613821
39	0x3da3bc53	0.07994904
40	0x3c9261bd	0.01786887
41	0xbd6a68ef	-0.05722898
42	0x3d500107	0.05078223
43	0x3c353e03	0.011062148
44	0x3c0e043a	0.008668
45	0xbcf4cb70	-0.029882163
46	0x3c18647c	0.009301301
47	0xbdaadd7f	-0.08343028
48	0x3b92cc58	0.004479926
49	0x3e0dbcff	0.13841628
50	0xbbb434c0	-0.0054994524
51	0xbcc45d7c	-0.023970358
52	0x3bb1e2d2	0.0054286504
53	0xbc31e2d9	-0.010857307
54	0x3c385723	0.011251244
55	0x3e150ce8	0.14555705
56	0x3c6bea41	0.014399112
57	0xbd932c97	-0.07186239
58	0x3e1de5e5	0.15419729
59	0xbdd9d447	-0.10636192
60	0x3dca180c	0.09867868
61	0x3db45a1a	0.08806248
62	0xbc808f80	-0.015693426
63	0x3d8b6daa	0.06808026
64	0x3d3b3e50	0.045713723
65	0xbd737cc2	-0.05944515
66	0xbdb3e344	-0.08783582
67	0x3d590eb7	0.05299255
68	0x3dd59e27	0.10430556
69	0x3d1490bd	0.036270846
70	0xbd09d541	-0.03365064
71	0xbc3ccc20	-0.011523277
72	0x3de28770	0.11060989
73	0x3e00b141	0.12567617
74	0xbd9930cd	-0.07480011
75	0x3c5f4c1d	0.013628987
76	0x3dbdab92	0.0926124
77	0x3dcc2c1d	0.099693514
78	0xbd4f92ae	-0.050676994
79	0x3db29ac7	0.08720928
80	0x3d332a9e	0.043741815
81	0x3dbd758a	0.092509344
82	0xbc300b18	-0.010744832
83	0x3d79650d	0.060887385
84	0xbc7bca4e	-0.015368057
85	0x3d5f2011	0.05447394
86	0x3db36d67	0.08761101
87	0xbdcfadbf	-0.10140561
88	0xbd9e8dbf	-0.0774188
89	0xbc184609	-0.009294041
90	0x3e1c971f	0.15292023
91	0x3d84ce3f	0.06484651
92	0x3ce80ee7	0.028327418
93	0x3dcca96c	0.09993252
94	0xbd43a35e	-0.04776322
95	0x3c421667	0.011846161
96	0xbda55c84	-0.080742866
97	0x3e0b4280	0.13599586
98	0x3daeb334	0.08530274
99	0x3cb1d18f	0.02170637
100	0x3bef3b50	0.007300772
101	0x3db59b5a	0.088675216
102	0x3e1556f4	0.14583951
103	0xbc78949c	-0.01517215
104	0x3b3b0ee5	0.0028542813
105	0x3dc1f814	0.09471145
106	0xbb24a7c9	-0.0025124422
107	0x3df7c5ef	0.120983
108	0x3e1691c5	0.14704044
109	0x3cf4ac8c	0.029867433
110	0x3db9bfe7	0.090698056
111	0xbd83092c	-0.06398234
112	0xbd8bb12e	-0.06820904
113	0xbd35635c	-0.04428421
114	0x39d8eea6	0.00041376537
115	0x3d55dd90	0.05221325
116	0x3d5025dd	0.05081736
117	0x3d9d1bf8	0.0767135
118	0xbcba95c0	-0.022776484
119	0x3d83e00e	0.064392194
120	0x3d80d7c4	0.06291154
121	0x3d9fc7bb	0.078017674
122	0x3dd52453	0.10407319
123	0x3d6d87be	0.057990782
124	0x3e026a80	0.12735939
125	0xbd557b3b	-0.052119475
126	0x3de9dd24	0.11419132
127	0x3d0790a9	0.033096943
128	0xbdefcc8a	-0.117089346
129	0x3d616427	0.055027153
130	0xbde1200f	-0.10992443
131	0x3e1b05b1	0.1513889
132	0xbdf52030	-0.1196903
133	0x3c62e64b	0.013848851
134	0x3e0c8fc3	0.13726716
135	0x3d9a8c58	0.075463
136	0xbe1e4e90	-0.15459657
137	0xbc46acf6	-0.012126198
138	0x3ccb3416	0.02480511
139	0xbd2000ea	-0.03906337
140	0xbbc5716d	-0.0060254843
141	0xbdb93ac0	-0.09044409
142	0xbd774590	-0.060369074
143	0x3c704685	0.014665251
144	0xbe1886b0	-0.14895129
145	0x3d82a3bf	0.06378888
146	0x3c29cc7e	0.010363696
147	0x3d6aee1d	0.05735599
148	0xbd309951	-0.043114964
149	0xb9e06069	-0.0004279644
150	0xbdc62d47	-0.09676605
151	0x3dac10bb	0.084016286
152	0xbcec13f2	-0.028818104
153	0x3e09ebad	0.1346881
154	0x3d642457	0.05569872
155	0xbd54c30b	-0.05194382
156	0x3be7c153	0.0070726066
157	0x3dc4b55f	0.09604906
158	0xbc6bf7a2	-0.014402302
159	0xbdba00be	-0.09082173
160	0xbe081815	-0.13290437
161	0x3d3cc3f1	0.0460853
162	0xbc24c597	-0.010056875
163	0x3d6c927c	0.057756886
164	0xbd83bcf8	-0.06432527
165	0xbe013b21	-0.12620212
166	0xbdb9ff05	-0.09081844
167	0xbdbcf0b0	-0.09225595
168	0xbc6e9c9c	-0.014563706
169	0xbd442deb	-0.047895353
170	0x3ae8f38c	0.0017772778
171	0xbda4c6f2	-0.08045758
172	0xbd4149dc	-0.04718958
173	0x3d3a0913	0.04541881
174	0x3e028c4b	0.1274883
175	0x3d064522	0.032780774
176	0x3dc9b256	0.09848468
177	0xbcfcd228	-0.030861929
178	0x3da75305	0.081701316
179	0x3de56dcd	0.112025835
180	0xbddefa78	-0.10887617
181	0x3cde577d	0.027141327
182	0xbd7effac	-0.062255546
183	0x3e14e39d	0.14539953
184	0xbba7ee74	-0.0051248614
185	0xbd0e0b40	-0.034678698
186	0x3e03abba	0.12858477
187	0xbd8d9177	-0.06912511
188	0xbd8ceeed	-0.06881509
189	0x3d98ea92	0.07466616
190	0x3df2aa4c	0.11848888
191	0xbde38578	-0.111094415
192	0xbd947aff	-0.07250022
193	0xbccdba6c	-0.025113307
194	0x3cfa26a8	0.03053601
195	0x3c0a74e8	0.008450724
196	0x3d997623	0.07493236
197	0x3dfc5470	0.12320793
198	0x3d6abd18	0.05730924
199	0xbd65d5f5	-0.05611225
200	0xbc84c4dd	-0.016207153
201	0x3daa8107	0.08325391
202	0x3d91bdc6	0.071162745
203	0x3c10b4f6	0.008832207
204	0x3dbdfa9a	0.09276314
205	0xbd7d2d3c	-0.061810717
206	0xbc3111cf	-0.010807469
207	0x3d8d887a	0.069107965
208	0xbbecef13	-0.0072306483
209	0xbd1d978f	-0.038474616
210	0xbd787c45	-0.060665388
211	0x3dda4619	0.10657901
212	0xbd8099b3	-0.06279316
213	0xbb457739	-0.0030130877
214	0x3dfaf3a2	0.122535005
215	0x3dbf12e4	0.09329775
216	0xbdbff221	-0.09372354
217	0x3d03d2b0	0.03218335
218	0xbd251c49	-0.040310178
219	0x3c5c92be	0.01346272
220	0x3c16c573	0.009202349
221	0x3d7c07d4	0.061530903
222	0x3d84b66c	0.06480107
223	0xbd9003c7	-0.070319705
224	0xbdad113b	-0.08450552
225	0x3dd1666e	0.10224615
226	0x3dbb84fe	0.091562256
227	0x3e0559a4	0.13022476
228	0x3d9b5c35	0.075859465
229	0x3d103311	0.03520495
230	0xbd0b3bd1	-0.033992592
231	0xbd112db9	-0.035443995
232	0x3e22c352	0.15894821
233	0x397a3d82	0.00023864771
234	0x3c8e3aa4	0.017361946
235	0xbdf07f38	-0.11743015
236	0xbcad9685	-0.021189937
237	0x3deddb71	0.11614121
238	0xbc087a1a	-0.0083298925
239	0xbcf96941	-0.030445697
240	0xbd7b062d	-0.061285187
241	0xbd9d0b49	-0.07668168
242	0x3d81be06	0.06335072
243	0x3d8babba	0.068198636
244	0xbd9e54fd	-0.07731054
245	0x3e08e6ba	0.13369265
246	0x3d8e0eee	0.06936441
247	0xbd846908	-0.064653456
248	0x3dd1ccef	0.10244166
249	0x3d3e028d	0.04638915
250	0xbd5959b6	-0.05306407
251	0xbe0110e1	-0.12604095
252	0x3ddcb7e3	0.10777261
253	0x3e152d66	0.145681
254	0x3dcfe0fa	0.10150333
255	0x3dc3a156	0.09552257

5 f4 [256, 64]
0	0x3d968dc7	0.07351261
1	0xbc1fe90b	-0.009760152
2	0xb9d5cd4c	-0.00040779484
3	0xbd582abf	-0.05277514
4	0xbd9f5b97	-0.07781141
5	0xbd6d813f	-0.057984587
6	0xbcfe122c	-0.031014524
7	0xbd49a475	-0.049229104
8	0x3de6cad8	0.11269158
9	0x3c50e331	0.012749479
10	0x3d741d6f	0.059598383
11	0xbda870fe	-0.082246765
12	0x3d4f6793	0.050635885
13	0x3d72c0d6	0.059265934
14	0x3daf9d0e	0.08574878
15	0xbd03d44f	-0.032184895
16	0xbd93c586	-0.07215409
17	0x3d60607e	0.054779522
18	0x3d13d4f1	0.03609175
19	0x3dbe1808	0.09281927
20	0xbdae5a2c	-0.08513293
21	0x3de700e4	0.11279467
22	0x3dd759d1	0.10515178
23	0x3db4bb20	0.08824754
24	0xbbf30a43	-0.007416995
25	0x3de8acbf	0.11361074
26	0xbd702154	-0.058625534
27	0xbdcc07fe	-0.09962462
28	0xbd43557a	-0.04768894
29	0x3db5d7fb	0.08879086
30	0xbd804ab0	-0.062642455
31	0x3dafb618	0.085796535
32	0xbd84f158	-0.06491345
33	0x3becfbbc	0.0072321575
34	0xbd944310	-0.07239354
35	0xbd1bdae5	-0.03805055
36	0x3dbdb1cb	0.09262427
37	0xbb909a05	-0.004412892
38	0xbb01e1ab	-0.0019818346
39	0x3d1de003	0.038543712
40	0xbde1c604	-0.110240966
41	0xbd946cd8	-0.07247323
42	0xbcac28b5	-0.021015504
43	0x3de65172	0.11246003
44	0xbe05df45	-0.13073452
45	0xbcc2bbd9	-0.023771213
46	0x3d30eb78	0.04319331
47	0xbddf2e05	-0.108974494
48	0xbc9ab711	-0.018886121
49	0x3d41a507	0.047276523
50	0xbd85b47e	-0.06528567
51	0xbd1bb542	-0.038014658
52	0x3d001e17	0.031278696
53	0xbda2f99a	-0.07957764
54	0xbc4f46d6	-0.012651166
55	0x3d65a919	0.056069467
56	0xbda67087	-0.08126932
57	0x3d9d7833	0.07688942
58	0x3c0fc989	0.008776077
59	0x3cb4706a	0.02202626
60	0x3ddcd6e0	0.10783172
61	0x3d773629	0.060354386
62	0xbcb29196	-0.021797936
63	0x3de3c5ee	0.111217365
64	0xbe07cd83	-0.1326199
65	0x3cc013b2	0.023446891
66	0xbbd2037d	-0.0064091072
67	0x3dc20661	0.09473873
68	0xbdb74911	-0.08949483
69	0x3e0bbc10	0.13645959
70	0xbd3ad03d	-0.045608748
71	0xbd9c5ca3	-0.076348566
72	0x3b49fe22	0.003082164
73	0x3c383d30	0.011245057
74	0xbcc86a44	-0.024464734
75	0x3d5823e2	0.052768596
76	0x3db7dcdd	0.08977673
77	0x3c37f1ac	0.011227053
78	0xbc8483fe	-0.01617622
79	0x3d0ddbf4	0.03463359
80	0xbb17dfe8	-0.002317423
81	0x3dc4fe4d	0.096188165
82	0xbd9f200c	-0.07769784
83	0x3e008870	0.12552047
84	0xbe0a6fb4	-0.13519174
85	0xbd44030e	-0.047854476
86	0xbdfa1f34	-0.12212983
87	0xbdeb4f1c	-0.11489698
88	0x3e05bdf3	0.13060741
89	0xbc31eb51	-0.010859326
90	0xbd0e2102	-0.034699447
91	0xbddb4c11	-0.10707868
92	0x3bc49500	0.0059992075
93	0x3dffd5d1	0.12491954
94	0xbcd52395	-0.026017943
95	0xbdc2c117	-0.09509485
96	0xbcc7265f	-0.024310289
97	0xbceeab2c	-0.029134355
98	0x3da4f31c	0.08054182
99	0x3d10e4bb	0.035374384
100	0x3d91b545	0.071146525
101	0xbdeeb8ed	-0.116563655
102	0x3d7c2da4	0.061566964
103	0xbddad5fb	-0.10685345
104	0xba5ba54a	-0.0008378817
105	0x3b30ac42	0.0026958142
106	0x3d84b00b	0.0647889
107	0x3d211468	0.0393261
108	0xbd40021d	-0.046877015
109	0x3d22077c	0.03955792
110	0xbd064cea	-0.032788195
111	0x3d1ddabc	0.03853868
112	0x3e041f74	0.12902623
113	0xbc225e11	-0.0099101225
114	0x3d1afa14	0.03783615
115	0x3c0b0e74	0.008487333
116	0x3d6d88d0	0.057991803
117	0x3d96b7d1	0.07359279
118	0xbc9be43f	-0.019029735
119	0xbc96a684	-0.018389948
120	0x3d94e02d	0.07269321
121	0x3b5f48df	0.0034070534
122	0xbdb28c20	-0.08718133
123	0x3dce2175	0.10064975
124	0x3e01e790	0.1268599
125	0x3d86a770	0.06574905
126	0x3d25290d	0.040322352
127	0xbe12773f	-0.14303301
128	0xbdac36f7	-0.08408921
129	0x3bb84aa3	0.0056241318
130	0xbd05c544	-0.03265883
131	0x3c427895	0.011869569
132	0x3d2de521	0.042454842
133	0xbd91436a	-0.07092936
134	0xbd652d0e	-0.05595117
135	0xbb8db75a	-0.0043248357
136	0xbe16de0f	-0.14733146
137	0x3d8beee1	0.06832672
138	0x3d5791f9	0.052629445
139	0x3d92d054	0.07168642
140	0xbdfed526	-0.124429986
141	0x3d9498a3	0.07255676
142	0x3d8dcff8	0.069244325
143	0x3d25ffa7	0.040527012
144	0xbcd17f3d	-0.025573367
145	0x3d0e82da	0.03479276
146	0x3e2091b1	0.15680577
147	0xbdc2fd05	-0.09520916
148	0x3c8a2441	0.01686299
149	0x3e172010	0.14758325
150	0x3c1abf74	0.00944506
151	0x3dbac0c1	0.09118796
152	0xb9c6c45a	-0.00037911796
153	0xbd64196b	-0.055688303
154	0x3d42d3e3	0.047565352
155	0xbd8cc4fd	-0.0687351
156	0xbc640023	-0.013916048
157	0xbd375649	-0.044760022
158	0xbcfa90ff	-0.030586718
159	0x3d9b392f	0.07579266
160	0xbe02d63c	-0.12777036
161	0xbd9490c3	-0.072541736
162	0x3b8f4e9a	0.0043733837
163	0xbc8a82d5	-0.016908089
164	0xbc84413d	-0.01614439
165	0x3d36a559	0.04459128
166	0x3dbdebd4	0.09273496
167	0xbdf6ea96	-0.120564625
168	0x3d90cb36	0.070700094
169	0x3d81453f	0.06312036
170	0x3d71ef35	0.059066016
171	0xbc53bc5b	-0.012923325
172	0x3d3af812	0.045646735
173	0xbd9a1aa7	-0.07524615
174	0xbd615d02	-0.05502034
175	0xbd768266	-0.06018295
176	0x3e1a57a8	0.150725
177	0x3e0747bf	0.13210963
178	0x3daa643a	0.08319898
179	0xbd351f8e	-0.044219546
180	0xbcf8fd91	-0.030394347
181	0x3e139713	0.14413099
182	0x3dd54e68	0.104153454
183	0x3b89df29	0.004207511
184	0x3d4eb418	0.05046472
185	0x3d2e715a	0.04258857
186	0xba600c67	-0.000854677
187	0xbe0847c0	-0.1330862
188	0x3d172b71	0.036906663
189	0x3d905981	0.070483215
190	0x3e122130	0.14270473
191	0xbe003c08	-0.125229
192	0x3cfc0df9	0.030768381
193	0x3c524bae	0.012835426
194	0xbc5d4110	-0.013504282
195	0x3dd5cd99	0.10439605
196	0xbccb0bc8	-0.024785891
197	0xbb4ed3c2	-0.0031559323
198	0x3dbfaac8	0.09358746
199	0xbd511fe5	-0.051055808
200	0x3d8a98dc	0.06767437
201	0xbe0b1ba1	-0.13584758
202	0x3d938df4	0.0720481
203	0x3d3acdee	0.045606546
204	0xbc406d7f	-0.011744856
205	0xbd108b4e	-0.0352891
206	0xbd82161b	-0.063518725
207	0x3d491fd6	0.049102627
208	0x3d90d466	0.07071762
209	0x3c694af5	0.014239063
210	0xbdc90423	-0.09815242
211	0x3d050ba1	0.032481793
212	0xbdd12965	-0.102129735
213	0xbdcae292	-0.09906496
214	0xbbfd619d	-0.0077325837
215	0xbe0c5cc2	-0.1370726
216	0xbd0d33b3	-0.034473132
217	0xbd734376	-0.059390508
218	0x3d880322	0.066412225
219	0x3d7b986d	0.06142466
220	0xbda4ffa1	-0.0805657
221	0xbda3005d	-0.07959054
222	0x3d080c73	0.033214998
223	0xbcca614a	-0.024704594
224	0xbe02b7e6	-0.12765464
225	0xbd581a6b	-0.05275957
226	0xbd695edd	-0.056975234
227	0x3d97f80c	0.07420358
228	0xbdd2aea1	-0.10287214
229	0xbc9f0ad0	-0.019414335
230	0x3db6858f	0.08912193
231	0xbde616fe	-0.11234854
232	0x3ba1e247	0.0049403044
233	0x3cfc3db6	0.030791145
234	0xbd85cb80	-0.06532955
235	0x3da5fda2	0.08105017
236	0xbdc02822	-0.09382655
237	0x3da64176	0.081179544
238	0x3d9677e3	0.07347085
239	0xbd8ce559	-0.06879682
240	0xbb61e95a	-0.0034471364
241	0x3b169b97	0.0022980922
242	0x3e02681a	0.12735024
243	0x3cc6c464	0.024263568
244	0xbcf63ee6	-0.03005929
245	0x3d89112b	0.06692728
246	0xbd91d67e	-0.07120989
247	0xbcb37dd6	-0.02191059
248	0x3daa2e54	0.08309618
249	0xbd0800d1	-0.033203904
250	0x3d2ff17e	0.042954914
251	0x3dd704e8	0.10498983
252	0x3ccd1632	0.025034998
253	0x3da8d693	0.08244052
254	0x3b4f59dc	0.0031639254
255	0xbce50bec	-0.027959786

6 f4 [256, 64]
0	0xbd0dfbeb	-0.034664076
1	0x3c6a1470	0.014287099
2	0x3dc95588	0.09830767
3	0x3c1d6fda	0.009609187
4	0x3d40784a	0.046989717
5	0x3d2695f7	0.04067036
6	0xbd5d6765	-0.054053683
7	0x3d8a933e	0.067663655
8	0xbd926c1c	-0.071495265
9	0xbd4474c2	-0.04796291
10	0xbe0adbda	-0.13560429
11	0x3d89f289	0.06735713
12	0x3dcf2e90	0.10116303
13	0xbd86a6c7	-0.06574779
14	0xbdfd6c23	-0.12374141
15	0x3dc3cfc8	0.095611155
16	0x3d1ce163	0.038300883
17	0xbbc4e2b9	-0.0060084728
18	0x3c600eda	0.013675416
19	0x3c55b40c	0.013043415
20	0xbd122e65	-0.035688777
21	0x3db02cf6	0.086023256
22	0xbd84381c	-0.064560145
23	0x3ce30388	0.027711645
24	0x3d89fe6b	0.067379795
25	0xbde66228	-0.112491906
26	0xbdaa71e6	-0.08322506
27	0xbe151784	-0.14559752
28	0x3d16d129	0.036820564
29	0x3d017525	0.03160586
30	0xbd47b511	-0.048756663
31	0xbc7775d5	-0.015103777
32	0x3da59534	0.08085099
33	0x3cfeca9e	0.031102475
34	0xbd031c4a	-0.0320094
35	0x3dcdcc6f	0.10048758
36	0xbcd7e9c0	-0.026356578
37	0xbd9a8f93	-0.07546916
38	0x3d1c2759	0.038123462
39	0x3dd3cf65	0.10342292
40	0x3cf60161	0.030029954
41	0x3d9d077b	0.076674424
42	0x3bee6f75	0.0072764703
43	0xbdadfa80	-0.08495045
44	0x3bad3ab1	0.0052865376
45	0x3e15018b	0.1455137
46	0x3dee667a	0.116406396
47	0x3b64988c	0.0034880964
48	0x3bc970b1	0.006147467
49	0xbd63b2e6	-0.055590533
50	0xbbe0831a	-0.006851566
51	0xbdbafb75	-0.09129993
52	0xbd8b88ee	-0.06813227
53	0x3d15d084	0.03657581
54	0x3d5b23ce	0.053500943
55	0xbdf3d1e4	-0.11905268
56	0x3e04fb19	0.12986411
57	0x3d35dad0	0.04439813
58	0x3db4e73f	0.08833169
59	0xbded3fe6	-0.11584453
60	0x3dfc6d27	0.12325507
61	0x3d5ee2c4	0.05441548
62	0xbd7ba704	-0.061438575
63	0xbb019349	-0.0019771627
64	0xbdc79fc7	-0.09747272
65	0xbd215a17	-0.039392557
66	0x3ca2947f	0.0198462
67	0xbd50b7d5	-0.050956566
68	0xbd80f6af	-0.06297051
69	0x3c1bdfb7	0.009513787
70	0x3d6e8544	0.05823256
71	0xbb3b1f7e	-0.0028552706
72	0x3d2c9048	0.042129785
73	0xbb700187	-0.0036622004
74	0xbe121d4d	-0.1426899
75	0xbbd68804	-0.006546976
76	0x3c897b3b	0.016782394
77	0x3d3163f4	0.043308213
78	0x3c77e984	0.015131358
79	0xbd905621	-0.07047678
80	0xbdb9c38e	-0.09070502
81	0xbe068513	-0.13136701
82	0x3da85949	0.08220155
83	0x3d3bd8e1	0.04586113
84	0xbd8ddaae	-0.069264755
85	0x3ba363cc	0.004986262
86	0x3dc081cd	0.093997575
87	0xbc9ab53b	-0.018885246
88	0xbc82b247	-0.01595415
89	0xbd58634b	-0.05282907
90	0x3d4b8ad1	0.049692933
91	0xbc4a62aa	-0.012352625
92	0xbdb59b0d	-0.08867464
93	0x3da6dcf0	0.08147609
94	0x3a31ddf7	0.00067850895
95	0xbdfaef5b	-0.12252685
96	0xbd482a32	-0.048868366
97	0x3c239254	0.009983618
98	0xbd4c7221	-0.04991353
99	0x3d89b48b	0.06723889
100	0xbd2ed9e3	-0.04268826
101	0xbd09ba48	-0.033624917
102	0x3c504bc7	0.012713379
103	0xbdcd84ad	-0.100350715
104	0x3dc0ddc3	0.09417298
105	0x3d89c7ee	0.06727587
106	0x3db13d97	0.086543255
107	0xbd78b905	-0.060723323
108	0x3dae2f16	0.08505075
109	0x3ccba536	0.024859052
110	0x3bd653fe	0.0065407744
111	0xbcefcf65	-0.029273698
112	0xbda304eb	-0.079599224
113	0x3da83c98	0.08214682
114	0xbd83e1ec	-0.064395756
115	0xbcec7427	-0.02886398
116	0xbdd8e76c	-0.10591015
117	0x3cb398ca	0.021923441
118	0x3e16b7aa	0.147185
119	0xbd7e7459	-0.062122677
120	0x3e0e4770	0.13894439
121	0xbd9a3e14	-0.07531372
122	0xbc39f012	-0.011348741
123	0xbdb2a92e	-0.08723675
124	0x3c9a4d71	0.018835755
125	0xbd51de8b	-0.051237624
126	0xbd1bf3c7	-0.03807428
127	0xbd847943	-0.06468441
128	0x3d246115	0.040131647
129	0xbd2ceb19	-0.042216394
130	0x3c86f2e6	0.016473245
131	0xbdf4f683	-0.11961081
132	0xbd239f85	-0.03994705
133	0x3e072400	0.13197327
134	0xbdb14008	-0.08654791
135	0xbb31f315	-0.0027152945
136	0x3d66a99b	0.056314092
137	0x3d3dc3b7	0.046329226
138	0xbd9b7a9c	-0.07591745
139	0xbcc8aef9	-0.024497496
140	0xbe013177	-0.12616526
141	0x3dce9e0e	0.1008874
142	0x3d152150	0.036408722
143	0xbdb43ba6	-0.088004395
144	0xbd9f654c	-0.07782993
145	0xbbbf9e06	-0.0058476953
146	0xbdc518b5	-0.09623853
147	0xbd8e70d5	-0.06955115
148	0x3c82d47a	0.015970457
149	0xbd8bcac8	-0.06825787
150	0xbd93771b	-0.07200452
151	0x3dfb1c1f	0.12261223
152	0xbd164950	-0.03669101
153	0x3dc7547d	0.09732912
154	0xbd1a6e77	-0.037703004
155	0xbd055b74	-0.03255792
156	0x3e0404f4	0.12892514
157	0x3c27bc20	0.010237724
158	0x3d520a6e	0.051279478
159	0xbe09825e	-0.13428637
160	0x3dc293b2	0.09500827
161	0x3cf94f63	0.030433362
162	0xbd1166dd	-0.03549849
163	0xbdf7a1ba	-0.12091394
164	0x3d4999f5	0.04921909
165	0xbc956473	-0.018236374
166	0x3d98151e	0.07425903
167	0xbd9ff84b	-0.0781103
168	0xbd83d90d	-0.064378835
169	0x3dd0120d	0.10159693
170	0xbe016c58	-0.12638986
171	0x3e100f2d	0.14068289
172	0x3d8425eb	0.06452545
173	0x3e193948	0.14963257
174	0xbc6414a1	-0.013920934
175	0x3d3ab03e	0.045578234
176	0x3e0c52bc	0.13703436
177	0xbd1f97f2	-0.038963266
178	0x3cdf9999	0.02729492
179	0xbd99bbef	-0.075065486
180	0xbe0a02ec	-0.13477677
181	0x3dc09bd6	0.09404723
182	0x3df97429	0.12180359
183	0xbd1c5f41	-0.03817678
184	0x3c196e20	0.009364635
185	0xbda190cc	-0.07888946
186	0xbb38f6b0	-0.002822321
187	0xbdb34473	-0.0875329
188	0x3da86261	0.08221889
189	0xbda25b82	-0.0792761
190	0x3e1c42fa	0.15259925
191	0x3d9135dd	0.07090352
192	0xbd74f022	-0.05979932
193	0xbd8c1ba1	-0.06841207
194	0xbde12c81	-0.109948166
195	0xbd4739f1	-0.04863924
196	0xbc68369a	-0.014173174
197	0xbd4ffdd9	-0.050779197
198	0x3d28a4ea	0.0411729
199	0x3db6d95e	0.08928178
200	0x3d35f337	0.0444214
201	0xbd6fb367	-0.0585207
202	0xbc4842b8	-0.012222938
203	0x3d96136c	0.07327923
204	0x3d8ef5d1	0.069804795
205	0xbd6aa434	-0.057285503
206	0xbde43a49	-0.111439295
207	0xbdb44644	-0.088024646
208	0xbd359cea	-0.044339098
209	0xbd35f7ed	-0.044425894
210	0xbd5a7d43	-0.053342115
211	0xbdfa58f9	-0.122240014
212	0x3c36c640	0.011155665
213	0xbd248e09	-0.040174518
214	0x3d392a3f	0.045206305
215	0xbd503562	-0.05083216
216	0xbe0f9807	-0.14022838
217	0xbcce89ce	-0.025212195
218	0xbc816ead	-0.015799845
219	0x3c9d8d86	0.019232523
220	0x3db7ee29	0.08980972
221	0xbd26172a	-0.040549435
222	0xbd27528a	-0.0408502
223	0x3cf07a3b	0.029355159
224	0x3de687bc	0.11256358
225	0xbcfffca8	-0.031248406
226	0x3cf23e84	0.029570825
227	0xbd4136a3	-0.047171246
228	0xbdcb5b40	-0.09929514
229	0xbc44987d	-0.011999247
230	0x3d1de8fb	0.038552266
231	0x3dcee64d	0.1010252
232	0x3d28be71	0.041197244
233	0x3dd54f3c	0.104155034
234	0x3c3799d3	0.011206108
235	0x3da8edaf	0.082484595
236	0xbca82c8f	-0.02052906
237	0x3d87fd77	0.066401415
238	0x3d0bd4cf	0.034138497
239	0xbddd373f	-0.10801553
240	0x3e015350	0.12629437
241	0x3dd1ff64	0.1025379
242	0x3e064df5	0.13115676
243	0x3cfca43a	0.030840028
244	0x3cc24f02	0.023719314
245	0x3c9da10a	0.019241828
246	0x3d13f5c9	0.03612307
247	0x3d5cdc12	0.053920813
248	0x3d9e18ee	0.07719599
249	0xbdd3ac89	-0.10335643
250	0x3cefacae	0.029257145
251	0xbb2e653c	-0.0026610633
252	0x3e091ca3	0.1338983
253	0xbb836aa9	-0.0040105176
254	0x3dc39c25	0.095512666
255	0x3db69cea	0.08916648

7 f4 [256]
0	0x3bfaf7b5	0.0076589235
1	0xbd9f6629	-0.077831574
2	0x3de82124	0.11334446
3	0x3d85f11e	0.0654013
4	0x3c876ec7	0.016532315
5	0xbdc08a13	-0.094013356
6	0xbbc1dc57	-0.005916159
7	0x3dc71975	0.097216524
8	0x3dd0437d	0.10169122
9	0xbc64d2d2	-0.013966279
10	0xbd8263f7	-0.06366723
11	0xbc934c89	-0.01798083
12	0x3d7cc665	0.06171264
13	0xbd5706de	-0.052496783
14	0xbd942416	-0.07233445
15	0x3a54e6da	0.0008121558
16	0x3e0adcec	0.13560838
17	0xbd571d9a	-0.052518465
18	0x3dc470c0	0.09591818
19	0x3cd028e3	0.025410121
20	0x3b48cc1c	0.0030639237
21	0x3cabd5bd	0.020975942
22	0xbb843379	-0.0040344563
23	0x3b893e0d	0.004188305
24	0x3d7ce619	0.061742876
25	0xbcee52cd	-0.029092217
26	0x3d2ff7bf	0.04296088
27	0xbd8cd41a	-0.06876393
28	0xbd78c6b6	-0.06073638
29	0x3e23fbc2	0.16014007
30	0x3dffb1e4	0.12485102
31	0x3d5de9cf	0.054178055
32	0xbdc64a92	-0.09682192
33	0x3deb10d6	0.114778206
34	0xbd88af9e	-0.06674121
35	0xbdbb427c	-0.0914354
36	0xbd5c138c	-0.05372958
37	0x3c8f1385	0.017465362
38	0x3d1d26a6	0.038366936
39	0xbdacfa98	-0.084462345
40	0xbdba79bb	-0.091052495
41	0x3de17221	0.110080965
42	0xbd6dbf2e	-0.05804365
43	0xbd2b7285	-0.04185726
44	0x3da9de06	0.08294301
45	0x3dccfa21	0.10008646
46	0x3d40e8ec	0.04709713
47	0x3c434a71	0.011919604
48	0x3c697ee7	0.014251447
49	0xbdb0d8c7	-0.08635097
50	0x3db5d569	0.088785954
51	0x3db0c5ad	0.08631454
52	0x3d4de4fe	0.050267212
53	0x3d3c4079	0.045959923
54	0x3b92e742	0.0044831345
55	0xbdc069d5	-0.09395186
56	0x3d0d359f	0.034474965
57	0x3dd6ba81	0.104847915
58	0xbd663ec9	-0.05621222
59	0x3d71b397	0.05900916
60	0x3b357216	0.0027686409
61	0xbca5bae3	-0.020230716
62	0xbd4caecd	-0.04997139
63	0x3e1155f0	0.14192939
64	0xbcaa487e	-0.02078652
65	0x3deab409	0.1146012
66	0x3dd42be0	0.10359931
67	0x3e0cb5a1	0.13741161
68	0xbd9d9d8d	-0.07696066
69	0x3df5f0ac	0.12008795
70	0x3db2bc36	0.08727305
71	0xbdf4e55c	-0.11957809
72	0x3d8de6f9	0.0692882
73	0xbdb323ba	-0.08747049
74	0xbdc1e363	-0.09467199
75	0x3e183308	0.14863217
76	0x3d18abe3	0.0372733
77	0x3da3c5b8	0.07996696
78	0xbdb4cfec	-0.088287205
79	0x3cfca3be	0.030839797
80	0x3e1dea0a	0.1542131
81	0x3df5bbf7	0.11998742
82	0x3e02220b	0.12708299
83	0x3dccca1f	0.09999489
84	0x3e1e2248	0.15442765
85	0xbdca3172	-0.09872712
86	0x3d9dd5ca	0.07706793
87	0xbd9d5dbf	-0.07683896
88	0xbcf3c705	-0.029757986
89	0x3da3271e	0.079664454
90	0xbd922b24	-0.07137135
91	0xbd95090d	-0.07277117
92	0x3dec7882	0.115464225
93	0xbda84fec	-0.08218369
94	0x3dc0e6ab	0.094189964
95	0x3c5a8fd2	0.0133399535
96	0xbd88b437	-0.06674998
97	0x3d28ea53	0.041239094
98	0x3c912054	0.01771561
99	0x3dd8a1ba	0.10577722
100	0x3a9500dc	0.0011368054
101	0x3d86a060	0.06573558
102	0x3dd4e16a	0.10394557
103	0x3e1d4f4d	0.15362282
104	0x3cc99004	0.024604805
105	0xbd4522cc	-0.048128888
106	0x3dfbd215	0.12295929
107	0xbcc9dcbf	-0.024641393
108	0x3e1624d5	0.14662488
109	0x3c509533	0.012730884
110	0xbd7f0193	-0.06225736
111	0x3dbee039	0.09320111
112	0x3e129f1a	0.14318505
113	0x3dcf8bca	0.101340845
114	0x3ca11e88	0.019667879
115	0xbb45dfd9	-0.0030193238
116	0xbaf6ed2c	-0.0018838993
117	0xbb927103	-0.0044690385
118	0x3df5b894	0.11998096
119	0xbd78055a	-0.06055198
120	0xbd8758df	-0.06608748
121	0xbd9f2337	-0.077703886
122	0x3d3d8873	0.046272706
123	0x3d29c744	0.0414498
124	0xbd3ce1c5	-0.046113748
125	0x3bd1b77d	0.0064000473
126	0xbd471f41	-0.04861379
127	0x3df01f94	0.11724773
128	0x3d0fa832	0.035072513
129	0xbdad8aaf	-0.084737174
130	0x3d7670d9	0.060166214
131	0x3dbcf96f	0.09227263
132	0x3c5dbbf1	0.013533578
133	0x3e13d6d7	0.14437424
134	0xbd29a445	-0.041416425
135	0x3cd59d1e	0.026075896
136	0x3dde54cc	0.108560175
137	0x3e06ef3b	0.13177197
138	0x3da71a42	0.08159305
139	0x3da08a79	0.078389116
140	0xbe08a83f	-0.13345431
141	0xbd9400d0	-0.072267175
142	0xbe1d2533	-0.15346222
143	0x3d7b930a	0.061419524
144	0x3dc5b0d0	0.09652865
145	0xbddc4eb8	-0.10757202
146	0xbdb64d23	-0.089014314
147	0x3dd8fd5f	0.10595202
148	0xbdb7faca	-0.08983381
149	0x3d7929d8	0.06083092
150	0x3d8c8267	0.0686081
151	0x3e0e9bb4	0.13926584
152	0xbdb817a3	-0.08988883
153	0x3dc98b1b	0.098409854
154	0xbd85dd87	-0.065363936
155	0xbdba9a98	-0.09111518
156	0x3de95a23	0.11394145
157	0x3cf785f1	0.030215235
158	0x3ddf8ce4	0.10915545
159	0xbd69c01c	-0.057067975
160	0x3d325c10	0.04354483
161	0x3d12ec68	0.035869986
162	0xbc959fc8	-0.018264666
163	0xbd8e473f	-0.06947183
164	0x3d0a9bd7	0.033840027
165	0xbdec2e35	-0.11532251
166	0xbd6eb5d4	-0.058278874
167	0xbdc5b097	-0.096528225
168	0xbda1e906	-0.07905774
169	0xbdc1c70b	-0.094617926
170	0xbe19c8db	-0.15018027
171	0x3dadcf8f	0.08486854
172	0xbd213d58	-0.039365143
173	0xbdab0f41	-0.08352519
174	0x3deb3640	0.11484957
175	0xbd0a7fdb	-0.03381334
176	0x3c2d3bcc	0.010573339
177	0xbcf7415b	-0.030182531
178	0x3c20b4ff	0.009808778
179	0xbdd55ad6	-0.10417716
180	0xbe03baf4	-0.12864286
181	0x3cf0f840	0.02941525
182	0x3d47280f	0.048622187
183	0xbe0b246b	-0.13588111
184	0xbd80d1b0	-0.06289995
185	0x3dacb896	0.084336445
186	0x3dba5683	0.09098532
187	0xbd1ca202	-0.03824044
188	0x3dcab686	0.09898095
189	0xbcbb4603	-0.022860533
190	0x3ddd7e35	0.10815088
191	0x3d4dbf08	0.05023101
192	0x3d833bdc	0.06407902
193	0x3d6e749b	0.058216672
194	0xbcee7e3c	-0.029112928
195	0xbd837e16	-0.06420533
196	0xbc9467d5	-0.018115917
197	0x3da02ca0	0.078210115
198	0xbd4dea92	-0.05027253
199	0xbcd57ffc	-0.026062004
200	0x3930ca5a	0.0001686005
201	0x3def337a	0.1167974
202	0xbd0f64e9	-0.035008345
203	0x3e234281	0.15943338
204	0x3dd33df5	0.10314552
205	0x3d2bc06b	0.04193155
206	0xbd514581	-0.051091675
207	0x3d1cb159	0.03825507
208	0x3e145ee6	0.14489326
209	0xbd098e32	-0.033582874
210	0xbd2b769a	-0.041861154
211	0xbdca85c9	-0.09888799
212	0x3dec49c7	0.115375094
213	0xbd704293	-0.05865724
214	0x3dcdd8e0	0.10051131
215	0x3d2e6bca	0.042583264
216	0x3dc04bf8	0.0938949
217	0xbc592a30	-0.013254687
218	0x3df1dc69	0.11809618
219	0xbd914735	-0.0709366
220	0x3e08dd5f	0.13365696
221	0xbb3e2924	-0.002901622
222	0x3c30c88d	0.0107900025
223	0x3d3a5101	0.045487408
224	0xbdf16931	-0.11787642
225	0x3ded1923	0.1157706
226	0xbd6181ab	-0.0550553
227	0x3e095a3e	0.13413331
228	0x3df4f9a6	0.11961679
229	0x3d343bbe	0.044002287
230	0xbd8025b3	-0.062571906
231	0x3df4aac9	0.11946637
232	0xbd9ace6b	-0.07558902
233	0x3d362df2	0.04447741
234	0x3da69d94	0.081355244
235	0x3ced43eb	0.02896305
236	0x3ca6dfdd	0.020370418
237	0x3e041ff3	0.12902813
238	0x3b78430e	0.0037881765
239	0xbdb719c4	-0.08940461
240	0x3d4aacd9	0.049481247
241	0xbd0d7d43	-0.034543287
242	0x3d1ba66b	0.038000505
243	0x3d93f079	0.07223601
244	0xbd9f7538	-0.077860296
245	0x3d66ee3e	0.05637955
246	0xbd872294	-0.06598392
247	0x3dfcefe5	0.12350444
248	0x3e19a6f9	0.15005101
249	0x3de81ecd	0.11334
250	0xbd4204df	-0.047367927
251	0xbd10a159	-0.035310123
252	0x3dfcf1bb	0.12350794
253	0x3d5ee956	0.054421745
254	0x3b53e214	0.0032330798
255	0x3d04a334	0.032382205
